…
decode_head.conv_seg.bias - torch.Size([19]): 
NormalInit: mean=0, std=0.01, bias=0 

decode_head.convs.0.conv.weight - torch.Size([600, 600, 1, 1]): 
The value is the same before and after calling `init_weights` of EncoderDecoder  

decode_head.convs.0.bn.weight - torch.Size([600]): 
The value is the same before and after calling `init_weights` of EncoderDecoder  

decode_head.convs.0.bn.bias - torch.Size([600]): 
The value is the same before and after calling `init_weights` of EncoderDecoder  
2021-08-27 16:58:25,924 - mmseg - INFO - EncoderDecoder(
  (backbone): LiteHRNet(
    (stem): Stem(
      (conv1): ConvModule(
        (conv): Conv2d(3, 32, kernel_size=(3, 3), stride=(2, 2), padding=(1, 1), bias=False)
        (bn): SyncBatchNorm(32, eps=1e-05, momentum=0.1, affine=True, track_running_stats=True)
        (activate): ReLU(inplace=True)
      )
      (branch1): Sequential(
        (0): ConvModule(
          (conv): Conv2d(16, 16, kernel_size=(3, 3), stride=(2, 2), padding=(1, 1), groups=16, bias=False)
          (bn): SyncBatchNorm(16, eps=1e-05, momentum=0.1, affine=True, track_running_stats=True)
        )
        (1): ConvModule(
          (conv): Conv2d(16, 16, kernel_size=(1, 1), stride=(1, 1), bias=False)
          (bn): SyncBatchNorm(16, eps=1e-05, momentum=0.1, affine=True, track_running_stats=True)
          (activate): ReLU(inplace=True)
        )
      )
      (expand_conv): ConvModule(
        (conv): Conv2d(16, 32, kernel_size=(1, 1), stride=(1, 1), bias=False)
        (bn): SyncBatchNorm(32, eps=1e-05, momentum=0.1, affine=True, track_running_stats=True)
        (activate): ReLU(inplace=True)
      )
      (depthwise_conv): ConvModule(
        (conv): Conv2d(32, 32, kernel_size=(3, 3), stride=(2, 2), padding=(1, 1), groups=32, bias=False)
        (bn): SyncBatchNorm(32, eps=1e-05, momentum=0.1, affine=True, track_running_stats=True)
      )
      (linear_conv): ConvModule(
        (conv): Conv2d(32, 16, kernel_size=(1, 1), stride=(1, 1), bias=False)
        (bn): SyncBatchNorm(16, eps=1e-05, momentum=0.1, affine=True, track_running_stats=True)
        (activate): ReLU(inplace=True)
      )
    )
    (transition0): ModuleList(
      (0): Sequential(
        (0): Conv2d(32, 32, kernel_size=(3, 3), stride=(1, 1), padding=(1, 1), groups=32, bias=False)
        (1): SyncBatchNorm(32, eps=1e-05, momentum=0.1, affine=True, track_running_stats=True)
        (2): Conv2d(32, 40, kernel_size=(1, 1), stride=(1, 1), bias=False)
        (3): SyncBatchNorm(40, eps=1e-05, momentum=0.1, affine=True, track_running_stats=True)
        (4): ReLU()
      )
      (1): Sequential(
        (0): Sequential(
          (0): Conv2d(32, 32, kernel_size=(3, 3), stride=(2, 2), padding=(1, 1), groups=32, bias=False)
          (1): SyncBatchNorm(32, eps=1e-05, momentum=0.1, affine=True, track_running_stats=True)
          (2): Conv2d(32, 80, kernel_size=(1, 1), stride=(1, 1), bias=False)
          (3): SyncBatchNorm(80, eps=1e-05, momentum=0.1, affine=True, track_running_stats=True)
          (4): ReLU()
        )
      )
    )
    (stage0): Sequential(
      (0): LiteHRModule(
        (layers): Sequential(
          (0): ConditionalChannelWeighting(
            (cross_resolution_weighting): CrossResolutionWeighting(
              (conv1): ConvModule(
                (conv): Conv2d(60, 7, kernel_size=(1, 1), stride=(1, 1), bias=False)
                (bn): SyncBatchNorm(7, eps=1e-05, momentum=0.1, affine=True, track_running_stats=True)
                (activate): ReLU(inplace=True)
              )
              (conv2): ConvModule(
                (conv): Conv2d(7, 60, kernel_size=(1, 1), stride=(1, 1), bias=False)
                (bn): SyncBatchNorm(60, eps=1e-05, momentum=0.1, affine=True, track_running_stats=True)
                (activate): Sigmoid()
              )
            )
            (depthwise_convs): ModuleList(
              (0): ConvModule(
                (conv): Conv2d(20, 20, kernel_size=(3, 3), stride=(1, 1), padding=(1, 1), groups=20, bias=False)
                (bn): SyncBatchNorm(20, eps=1e-05, momentum=0.1, affine=True, track_running_stats=True)
              )
              (1): ConvModule(
                (conv): Conv2d(40, 40, kernel_size=(3, 3), stride=(1, 1), padding=(1, 1), groups=40, bias=False)
                (bn): SyncBatchNorm(40, eps=1e-05, momentum=0.1, affine=True, track_running_stats=True)
              )
            )
            (spatial_weighting): ModuleList(
              (0): SpatialWeighting(
                (global_avgpool): AdaptiveAvgPool2d(output_size=1)
                (conv1): ConvModule(
                  (conv): Conv2d(20, 5, kernel_size=(1, 1), stride=(1, 1))
                  (activate): ReLU(inplace=True)
                )
                (conv2): ConvModule(
                  (conv): Conv2d(5, 20, kernel_size=(1, 1), stride=(1, 1))
                  (activate): Sigmoid()
                )
              )
              (1): SpatialWeighting(
                (global_avgpool): AdaptiveAvgPool2d(output_size=1)
                (conv1): ConvModule(
                  (conv): Conv2d(40, 10, kernel_size=(1, 1), stride=(1, 1))
                  (activate): ReLU(inplace=True)
                )
                (conv2): ConvModule(
                  (conv): Conv2d(10, 40, kernel_size=(1, 1), stride=(1, 1))
                  (activate): Sigmoid()
                )
              )
            )
          )
          (1): ConditionalChannelWeighting(
            (cross_resolution_weighting): CrossResolutionWeighting(
              (conv1): ConvModule(
                (conv): Conv2d(60, 7, kernel_size=(1, 1), stride=(1, 1), bias=False)
                (bn): SyncBatchNorm(7, eps=1e-05, momentum=0.1, affine=True, track_running_stats=True)
                (activate): ReLU(inplace=True)
              )
              (conv2): ConvModule(
                (conv): Conv2d(7, 60, kernel_size=(1, 1), stride=(1, 1), bias=False)
                (bn): SyncBatchNorm(60, eps=1e-05, momentum=0.1, affine=True, track_running_stats=True)
                (activate): Sigmoid()
              )
            )
            (depthwise_convs): ModuleList(
              (0): ConvModule(
                (conv): Conv2d(20, 20, kernel_size=(3, 3), stride=(1, 1), padding=(1, 1), groups=20, bias=False)
                (bn): SyncBatchNorm(20, eps=1e-05, momentum=0.1, affine=True, track_running_stats=True)
              )
              (1): ConvModule(
                (conv): Conv2d(40, 40, kernel_size=(3, 3), stride=(1, 1), padding=(1, 1), groups=40, bias=False)
                (bn): SyncBatchNorm(40, eps=1e-05, momentum=0.1, affine=True, track_running_stats=True)
              )
            )
            (spatial_weighting): ModuleList(
              (0): SpatialWeighting(
                (global_avgpool): AdaptiveAvgPool2d(output_size=1)
                (conv1): ConvModule(
                  (conv): Conv2d(20, 5, kernel_size=(1, 1), stride=(1, 1))
                  (activate): ReLU(inplace=True)
                )
                (conv2): ConvModule(
                  (conv): Conv2d(5, 20, kernel_size=(1, 1), stride=(1, 1))
                  (activate): Sigmoid()
                )
              )
              (1): SpatialWeighting(
                (global_avgpool): AdaptiveAvgPool2d(output_size=1)
                (conv1): ConvModule(
                  (conv): Conv2d(40, 10, kernel_size=(1, 1), stride=(1, 1))
                  (activate): ReLU(inplace=True)
                )
                (conv2): ConvModule(
                  (conv): Conv2d(10, 40, kernel_size=(1, 1), stride=(1, 1))
                  (activate): Sigmoid()
                )
              )
            )
          )
        )
        (fuse_layers): ModuleList(
          (0): ModuleList(
            (0): None
            (1): Sequential(
              (0): Conv2d(80, 40, kernel_size=(1, 1), stride=(1, 1), bias=False)
              (1): SyncBatchNorm(40, eps=1e-05, momentum=0.1, affine=True, track_running_stats=True)
              (2): Upsample(scale_factor=2.0, mode=nearest)
            )
          )
          (1): ModuleList(
            (0): Sequential(
              (0): Sequential(
                (0): Conv2d(40, 40, kernel_size=(3, 3), stride=(2, 2), padding=(1, 1), groups=40, bias=False)
                (1): SyncBatchNorm(40, eps=1e-05, momentum=0.1, affine=True, track_running_stats=True)
                (2): Conv2d(40, 80, kernel_size=(1, 1), stride=(1, 1), bias=False)
                (3): SyncBatchNorm(80, eps=1e-05, momentum=0.1, affine=True, track_running_stats=True)
              )
            )
            (1): None
          )
        )
        (relu): ReLU()
      )
      (1): LiteHRModule(
        (layers): Sequential(
          (0): ConditionalChannelWeighting(
            (cross_resolution_weighting): CrossResolutionWeighting(
              (conv1): ConvModule(
                (conv): Conv2d(60, 7, kernel_size=(1, 1), stride=(1, 1), bias=False)
                (bn): SyncBatchNorm(7, eps=1e-05, momentum=0.1, affine=True, track_running_stats=True)
                (activate): ReLU(inplace=True)
              )
              (conv2): ConvModule(
                (conv): Conv2d(7, 60, kernel_size=(1, 1), stride=(1, 1), bias=False)
                (bn): SyncBatchNorm(60, eps=1e-05, momentum=0.1, affine=True, track_running_stats=True)
                (activate): Sigmoid()
              )
            )
            (depthwise_convs): ModuleList(
              (0): ConvModule(
                (conv): Conv2d(20, 20, kernel_size=(3, 3), stride=(1, 1), padding=(1, 1), groups=20, bias=False)
                (bn): SyncBatchNorm(20, eps=1e-05, momentum=0.1, affine=True, track_running_stats=True)
              )
              (1): ConvModule(
                (conv): Conv2d(40, 40, kernel_size=(3, 3), stride=(1, 1), padding=(1, 1), groups=40, bias=False)
                (bn): SyncBatchNorm(40, eps=1e-05, momentum=0.1, affine=True, track_running_stats=True)
              )
            )
            (spatial_weighting): ModuleList(
              (0): SpatialWeighting(
                (global_avgpool): AdaptiveAvgPool2d(output_size=1)
                (conv1): ConvModule(
                  (conv): Conv2d(20, 5, kernel_size=(1, 1), stride=(1, 1))
                  (activate): ReLU(inplace=True)
                )
                (conv2): ConvModule(
                  (conv): Conv2d(5, 20, kernel_size=(1, 1), stride=(1, 1))
                  (activate): Sigmoid()
                )
              )
              (1): SpatialWeighting(
                (global_avgpool): AdaptiveAvgPool2d(output_size=1)
                (conv1): ConvModule(
                  (conv): Conv2d(40, 10, kernel_size=(1, 1), stride=(1, 1))
                  (activate): ReLU(inplace=True)
                )
                (conv2): ConvModule(
                  (conv): Conv2d(10, 40, kernel_size=(1, 1), stride=(1, 1))
                  (activate): Sigmoid()
                )
              )
            )
          )
          (1): ConditionalChannelWeighting(
            (cross_resolution_weighting): CrossResolutionWeighting(
              (conv1): ConvModule(
                (conv): Conv2d(60, 7, kernel_size=(1, 1), stride=(1, 1), bias=False)
                (bn): SyncBatchNorm(7, eps=1e-05, momentum=0.1, affine=True, track_running_stats=True)
                (activate): ReLU(inplace=True)
              )
              (conv2): ConvModule(
                (conv): Conv2d(7, 60, kernel_size=(1, 1), stride=(1, 1), bias=False)
                (bn): SyncBatchNorm(60, eps=1e-05, momentum=0.1, affine=True, track_running_stats=True)
                (activate): Sigmoid()
              )
            )
            (depthwise_convs): ModuleList(
              (0): ConvModule(
                (conv): Conv2d(20, 20, kernel_size=(3, 3), stride=(1, 1), padding=(1, 1), groups=20, bias=False)
                (bn): SyncBatchNorm(20, eps=1e-05, momentum=0.1, affine=True, track_running_stats=True)
              )
              (1): ConvModule(
                (conv): Conv2d(40, 40, kernel_size=(3, 3), stride=(1, 1), padding=(1, 1), groups=40, bias=False)
                (bn): SyncBatchNorm(40, eps=1e-05, momentum=0.1, affine=True, track_running_stats=True)
              )
            )
            (spatial_weighting): ModuleList(
              (0): SpatialWeighting(
                (global_avgpool): AdaptiveAvgPool2d(output_size=1)
                (conv1): ConvModule(
                  (conv): Conv2d(20, 5, kernel_size=(1, 1), stride=(1, 1))
                  (activate): ReLU(inplace=True)
                )
                (conv2): ConvModule(
                  (conv): Conv2d(5, 20, kernel_size=(1, 1), stride=(1, 1))
                  (activate): Sigmoid()
                )
              )
              (1): SpatialWeighting(
                (global_avgpool): AdaptiveAvgPool2d(output_size=1)
                (conv1): ConvModule(
                  (conv): Conv2d(40, 10, kernel_size=(1, 1), stride=(1, 1))
                  (activate): ReLU(inplace=True)
                )
                (conv2): ConvModule(
                  (conv): Conv2d(10, 40, kernel_size=(1, 1), stride=(1, 1))
                  (activate): Sigmoid()
                )
              )
            )
          )
        )
        (fuse_layers): ModuleList(
          (0): ModuleList(
            (0): None
            (1): Sequential(
              (0): Conv2d(80, 40, kernel_size=(1, 1), stride=(1, 1), bias=False)
              (1): SyncBatchNorm(40, eps=1e-05, momentum=0.1, affine=True, track_running_stats=True)
              (2): Upsample(scale_factor=2.0, mode=nearest)
            )
          )
          (1): ModuleList(
            (0): Sequential(
              (0): Sequential(
                (0): Conv2d(40, 40, kernel_size=(3, 3), stride=(2, 2), padding=(1, 1), groups=40, bias=False)
                (1): SyncBatchNorm(40, eps=1e-05, momentum=0.1, affine=True, track_running_stats=True)
                (2): Conv2d(40, 80, kernel_size=(1, 1), stride=(1, 1), bias=False)
                (3): SyncBatchNorm(80, eps=1e-05, momentum=0.1, affine=True, track_running_stats=True)
              )
            )
            (1): None
          )
        )
        (relu): ReLU()
      )
    )
    (transition1): ModuleList(
      (0): None
      (1): None
      (2): Sequential(
        (0): Sequential(
          (0): Conv2d(80, 80, kernel_size=(3, 3), stride=(2, 2), padding=(1, 1), groups=80, bias=False)
          (1): SyncBatchNorm(80, eps=1e-05, momentum=0.1, affine=True, track_running_stats=True)
          (2): Conv2d(80, 160, kernel_size=(1, 1), stride=(1, 1), bias=False)
          (3): SyncBatchNorm(160, eps=1e-05, momentum=0.1, affine=True, track_running_stats=True)
          (4): ReLU()
        )
      )
    )
    (stage1): Sequential(
      (0): LiteHRModule(
        (layers): Sequential(
          (0): ConditionalChannelWeighting(
            (cross_resolution_weighting): CrossResolutionWeighting(
              (conv1): ConvModule(
                (conv): Conv2d(140, 17, kernel_size=(1, 1), stride=(1, 1), bias=False)
                (bn): SyncBatchNorm(17, eps=1e-05, momentum=0.1, affine=True, track_running_stats=True)
                (activate): ReLU(inplace=True)
              )
              (conv2): ConvModule(
                (conv): Conv2d(17, 140, kernel_size=(1, 1), stride=(1, 1), bias=False)
                (bn): SyncBatchNorm(140, eps=1e-05, momentum=0.1, affine=True, track_running_stats=True)
                (activate): Sigmoid()
              )
            )
            (depthwise_convs): ModuleList(
              (0): ConvModule(
                (conv): Conv2d(20, 20, kernel_size=(3, 3), stride=(1, 1), padding=(1, 1), groups=20, bias=False)
                (bn): SyncBatchNorm(20, eps=1e-05, momentum=0.1, affine=True, track_running_stats=True)
              )
              (1): ConvModule(
                (conv): Conv2d(40, 40, kernel_size=(3, 3), stride=(1, 1), padding=(1, 1), groups=40, bias=False)
                (bn): SyncBatchNorm(40, eps=1e-05, momentum=0.1, affine=True, track_running_stats=True)
              )
              (2): ConvModule(
                (conv): Conv2d(80, 80, kernel_size=(3, 3), stride=(1, 1), padding=(1, 1), groups=80, bias=False)
                (bn): SyncBatchNorm(80, eps=1e-05, momentum=0.1, affine=True, track_running_stats=True)
              )
            )
            (spatial_weighting): ModuleList(
              (0): SpatialWeighting(
                (global_avgpool): AdaptiveAvgPool2d(output_size=1)
                (conv1): ConvModule(
                  (conv): Conv2d(20, 5, kernel_size=(1, 1), stride=(1, 1))
                  (activate): ReLU(inplace=True)
                )
                (conv2): ConvModule(
                  (conv): Conv2d(5, 20, kernel_size=(1, 1), stride=(1, 1))
                  (activate): Sigmoid()
                )
              )
              (1): SpatialWeighting(
                (global_avgpool): AdaptiveAvgPool2d(output_size=1)
                (conv1): ConvModule(
                  (conv): Conv2d(40, 10, kernel_size=(1, 1), stride=(1, 1))
                  (activate): ReLU(inplace=True)
                )
                (conv2): ConvModule(
                  (conv): Conv2d(10, 40, kernel_size=(1, 1), stride=(1, 1))
                  (activate): Sigmoid()
                )
              )
              (2): SpatialWeighting(
                (global_avgpool): AdaptiveAvgPool2d(output_size=1)
                (conv1): ConvModule(
                  (conv): Conv2d(80, 20, kernel_size=(1, 1), stride=(1, 1))
                  (activate): ReLU(inplace=True)
                )
                (conv2): ConvModule(
                  (conv): Conv2d(20, 80, kernel_size=(1, 1), stride=(1, 1))
                  (activate): Sigmoid()
                )
              )
            )
          )
          (1): ConditionalChannelWeighting(
            (cross_resolution_weighting): CrossResolutionWeighting(
              (conv1): ConvModule(
                (conv): Conv2d(140, 17, kernel_size=(1, 1), stride=(1, 1), bias=False)
                (bn): SyncBatchNorm(17, eps=1e-05, momentum=0.1, affine=True, track_running_stats=True)
                (activate): ReLU(inplace=True)
              )
              (conv2): ConvModule(
                (conv): Conv2d(17, 140, kernel_size=(1, 1), stride=(1, 1), bias=False)
                (bn): SyncBatchNorm(140, eps=1e-05, momentum=0.1, affine=True, track_running_stats=True)
                (activate): Sigmoid()
              )
            )
            (depthwise_convs): ModuleList(
              (0): ConvModule(
                (conv): Conv2d(20, 20, kernel_size=(3, 3), stride=(1, 1), padding=(1, 1), groups=20, bias=False)
                (bn): SyncBatchNorm(20, eps=1e-05, momentum=0.1, affine=True, track_running_stats=True)
              )
              (1): ConvModule(
                (conv): Conv2d(40, 40, kernel_size=(3, 3), stride=(1, 1), padding=(1, 1), groups=40, bias=False)
                (bn): SyncBatchNorm(40, eps=1e-05, momentum=0.1, affine=True, track_running_stats=True)
              )
              (2): ConvModule(
                (conv): Conv2d(80, 80, kernel_size=(3, 3), stride=(1, 1), padding=(1, 1), groups=80, bias=False)
                (bn): SyncBatchNorm(80, eps=1e-05, momentum=0.1, affine=True, track_running_stats=True)
              )
            )
            (spatial_weighting): ModuleList(
              (0): SpatialWeighting(
                (global_avgpool): AdaptiveAvgPool2d(output_size=1)
                (conv1): ConvModule(
                  (conv): Conv2d(20, 5, kernel_size=(1, 1), stride=(1, 1))
                  (activate): ReLU(inplace=True)
                )
                (conv2): ConvModule(
                  (conv): Conv2d(5, 20, kernel_size=(1, 1), stride=(1, 1))
                  (activate): Sigmoid()
                )
              )
              (1): SpatialWeighting(
                (global_avgpool): AdaptiveAvgPool2d(output_size=1)
                (conv1): ConvModule(
                  (conv): Conv2d(40, 10, kernel_size=(1, 1), stride=(1, 1))
                  (activate): ReLU(inplace=True)
                )
                (conv2): ConvModule(
                  (conv): Conv2d(10, 40, kernel_size=(1, 1), stride=(1, 1))
                  (activate): Sigmoid()
                )
              )
              (2): SpatialWeighting(
                (global_avgpool): AdaptiveAvgPool2d(output_size=1)
                (conv1): ConvModule(
                  (conv): Conv2d(80, 20, kernel_size=(1, 1), stride=(1, 1))
                  (activate): ReLU(inplace=True)
                )
                (conv2): ConvModule(
                  (conv): Conv2d(20, 80, kernel_size=(1, 1), stride=(1, 1))
                  (activate): Sigmoid()
                )
              )
            )
          )
        )
        (fuse_layers): ModuleList(
          (0): ModuleList(
            (0): None
            (1): Sequential(
              (0): Conv2d(80, 40, kernel_size=(1, 1), stride=(1, 1), bias=False)
              (1): SyncBatchNorm(40, eps=1e-05, momentum=0.1, affine=True, track_running_stats=True)
              (2): Upsample(scale_factor=2.0, mode=nearest)
            )
            (2): Sequential(
              (0): Conv2d(160, 40, kernel_size=(1, 1), stride=(1, 1), bias=False)
              (1): SyncBatchNorm(40, eps=1e-05, momentum=0.1, affine=True, track_running_stats=True)
              (2): Upsample(scale_factor=4.0, mode=nearest)
            )
          )
          (1): ModuleList(
            (0): Sequential(
              (0): Sequential(
                (0): Conv2d(40, 40, kernel_size=(3, 3), stride=(2, 2), padding=(1, 1), groups=40, bias=False)
                (1): SyncBatchNorm(40, eps=1e-05, momentum=0.1, affine=True, track_running_stats=True)
                (2): Conv2d(40, 80, kernel_size=(1, 1), stride=(1, 1), bias=False)
                (3): SyncBatchNorm(80, eps=1e-05, momentum=0.1, affine=True, track_running_stats=True)
              )
            )
            (1): None
            (2): Sequential(
              (0): Conv2d(160, 80, kernel_size=(1, 1), stride=(1, 1), bias=False)
              (1): SyncBatchNorm(80, eps=1e-05, momentum=0.1, affine=True, track_running_stats=True)
              (2): Upsample(scale_factor=2.0, mode=nearest)
            )
          )
          (2): ModuleList(
            (0): Sequential(
              (0): Sequential(
                (0): Conv2d(40, 40, kernel_size=(3, 3), stride=(2, 2), padding=(1, 1), groups=40, bias=False)
                (1): SyncBatchNorm(40, eps=1e-05, momentum=0.1, affine=True, track_running_stats=True)
                (2): Conv2d(40, 40, kernel_size=(1, 1), stride=(1, 1), bias=False)
                (3): SyncBatchNorm(40, eps=1e-05, momentum=0.1, affine=True, track_running_stats=True)
                (4): ReLU(inplace=True)
              )
              (1): Sequential(
                (0): Conv2d(40, 40, kernel_size=(3, 3), stride=(2, 2), padding=(1, 1), groups=40, bias=False)
                (1): SyncBatchNorm(40, eps=1e-05, momentum=0.1, affine=True, track_running_stats=True)
                (2): Conv2d(40, 160, kernel_size=(1, 1), stride=(1, 1), bias=False)
                (3): SyncBatchNorm(160, eps=1e-05, momentum=0.1, affine=True, track_running_stats=True)
              )
            )
            (1): Sequential(
              (0): Sequential(
                (0): Conv2d(80, 80, kernel_size=(3, 3), stride=(2, 2), padding=(1, 1), groups=80, bias=False)
                (1): SyncBatchNorm(80, eps=1e-05, momentum=0.1, affine=True, track_running_stats=True)
                (2): Conv2d(80, 160, kernel_size=(1, 1), stride=(1, 1), bias=False)
                (3): SyncBatchNorm(160, eps=1e-05, momentum=0.1, affine=True, track_running_stats=True)
              )
            )
            (2): None
          )
        )
        (relu): ReLU()
      )
      (1): LiteHRModule(
        (layers): Sequential(
          (0): ConditionalChannelWeighting(
            (cross_resolution_weighting): CrossResolutionWeighting(
              (conv1): ConvModule(
                (conv): Conv2d(140, 17, kernel_size=(1, 1), stride=(1, 1), bias=False)
                (bn): SyncBatchNorm(17, eps=1e-05, momentum=0.1, affine=True, track_running_stats=True)
                (activate): ReLU(inplace=True)
              )
              (conv2): ConvModule(
                (conv): Conv2d(17, 140, kernel_size=(1, 1), stride=(1, 1), bias=False)
                (bn): SyncBatchNorm(140, eps=1e-05, momentum=0.1, affine=True, track_running_stats=True)
                (activate): Sigmoid()
              )
            )
            (depthwise_convs): ModuleList(
              (0): ConvModule(
                (conv): Conv2d(20, 20, kernel_size=(3, 3), stride=(1, 1), padding=(1, 1), groups=20, bias=False)
                (bn): SyncBatchNorm(20, eps=1e-05, momentum=0.1, affine=True, track_running_stats=True)
              )
              (1): ConvModule(
                (conv): Conv2d(40, 40, kernel_size=(3, 3), stride=(1, 1), padding=(1, 1), groups=40, bias=False)
                (bn): SyncBatchNorm(40, eps=1e-05, momentum=0.1, affine=True, track_running_stats=True)
              )
              (2): ConvModule(
                (conv): Conv2d(80, 80, kernel_size=(3, 3), stride=(1, 1), padding=(1, 1), groups=80, bias=False)
                (bn): SyncBatchNorm(80, eps=1e-05, momentum=0.1, affine=True, track_running_stats=True)
              )
            )
            (spatial_weighting): ModuleList(
              (0): SpatialWeighting(
                (global_avgpool): AdaptiveAvgPool2d(output_size=1)
                (conv1): ConvModule(
                  (conv): Conv2d(20, 5, kernel_size=(1, 1), stride=(1, 1))
                  (activate): ReLU(inplace=True)
                )
                (conv2): ConvModule(
                  (conv): Conv2d(5, 20, kernel_size=(1, 1), stride=(1, 1))
                  (activate): Sigmoid()
                )
              )
              (1): SpatialWeighting(
                (global_avgpool): AdaptiveAvgPool2d(output_size=1)
                (conv1): ConvModule(
                  (conv): Conv2d(40, 10, kernel_size=(1, 1), stride=(1, 1))
                  (activate): ReLU(inplace=True)
                )
                (conv2): ConvModule(
                  (conv): Conv2d(10, 40, kernel_size=(1, 1), stride=(1, 1))
                  (activate): Sigmoid()
                )
              )
              (2): SpatialWeighting(
                (global_avgpool): AdaptiveAvgPool2d(output_size=1)
                (conv1): ConvModule(
                  (conv): Conv2d(80, 20, kernel_size=(1, 1), stride=(1, 1))
                  (activate): ReLU(inplace=True)
                )
                (conv2): ConvModule(
                  (conv): Conv2d(20, 80, kernel_size=(1, 1), stride=(1, 1))
                  (activate): Sigmoid()
                )
              )
            )
          )
          (1): ConditionalChannelWeighting(
            (cross_resolution_weighting): CrossResolutionWeighting(
              (conv1): ConvModule(
                (conv): Conv2d(140, 17, kernel_size=(1, 1), stride=(1, 1), bias=False)
                (bn): SyncBatchNorm(17, eps=1e-05, momentum=0.1, affine=True, track_running_stats=True)
                (activate): ReLU(inplace=True)
              )
              (conv2): ConvModule(
                (conv): Conv2d(17, 140, kernel_size=(1, 1), stride=(1, 1), bias=False)
                (bn): SyncBatchNorm(140, eps=1e-05, momentum=0.1, affine=True, track_running_stats=True)
                (activate): Sigmoid()
              )
            )
            (depthwise_convs): ModuleList(
              (0): ConvModule(
                (conv): Conv2d(20, 20, kernel_size=(3, 3), stride=(1, 1), padding=(1, 1), groups=20, bias=False)
                (bn): SyncBatchNorm(20, eps=1e-05, momentum=0.1, affine=True, track_running_stats=True)
              )
              (1): ConvModule(
                (conv): Conv2d(40, 40, kernel_size=(3, 3), stride=(1, 1), padding=(1, 1), groups=40, bias=False)
                (bn): SyncBatchNorm(40, eps=1e-05, momentum=0.1, affine=True, track_running_stats=True)
              )
              (2): ConvModule(
                (conv): Conv2d(80, 80, kernel_size=(3, 3), stride=(1, 1), padding=(1, 1), groups=80, bias=False)
                (bn): SyncBatchNorm(80, eps=1e-05, momentum=0.1, affine=True, track_running_stats=True)
              )
            )
            (spatial_weighting): ModuleList(
              (0): SpatialWeighting(
                (global_avgpool): AdaptiveAvgPool2d(output_size=1)
                (conv1): ConvModule(
                  (conv): Conv2d(20, 5, kernel_size=(1, 1), stride=(1, 1))
                  (activate): ReLU(inplace=True)
                )
                (conv2): ConvModule(
                  (conv): Conv2d(5, 20, kernel_size=(1, 1), stride=(1, 1))
                  (activate): Sigmoid()
                )
              )
              (1): SpatialWeighting(
                (global_avgpool): AdaptiveAvgPool2d(output_size=1)
                (conv1): ConvModule(
                  (conv): Conv2d(40, 10, kernel_size=(1, 1), stride=(1, 1))
                  (activate): ReLU(inplace=True)
                )
                (conv2): ConvModule(
                  (conv): Conv2d(10, 40, kernel_size=(1, 1), stride=(1, 1))
                  (activate): Sigmoid()
                )
              )
              (2): SpatialWeighting(
                (global_avgpool): AdaptiveAvgPool2d(output_size=1)
                (conv1): ConvModule(
                  (conv): Conv2d(80, 20, kernel_size=(1, 1), stride=(1, 1))
                  (activate): ReLU(inplace=True)
                )
                (conv2): ConvModule(
                  (conv): Conv2d(20, 80, kernel_size=(1, 1), stride=(1, 1))
                  (activate): Sigmoid()
                )
              )
            )
          )
        )
        (fuse_layers): ModuleList(
          (0): ModuleList(
            (0): None
            (1): Sequential(
              (0): Conv2d(80, 40, kernel_size=(1, 1), stride=(1, 1), bias=False)
              (1): SyncBatchNorm(40, eps=1e-05, momentum=0.1, affine=True, track_running_stats=True)
              (2): Upsample(scale_factor=2.0, mode=nearest)
            )
            (2): Sequential(
              (0): Conv2d(160, 40, kernel_size=(1, 1), stride=(1, 1), bias=False)
              (1): SyncBatchNorm(40, eps=1e-05, momentum=0.1, affine=True, track_running_stats=True)
              (2): Upsample(scale_factor=4.0, mode=nearest)
            )
          )
          (1): ModuleList(
            (0): Sequential(
              (0): Sequential(
                (0): Conv2d(40, 40, kernel_size=(3, 3), stride=(2, 2), padding=(1, 1), groups=40, bias=False)
                (1): SyncBatchNorm(40, eps=1e-05, momentum=0.1, affine=True, track_running_stats=True)
                (2): Conv2d(40, 80, kernel_size=(1, 1), stride=(1, 1), bias=False)
                (3): SyncBatchNorm(80, eps=1e-05, momentum=0.1, affine=True, track_running_stats=True)
              )
            )
            (1): None
            (2): Sequential(
              (0): Conv2d(160, 80, kernel_size=(1, 1), stride=(1, 1), bias=False)
              (1): SyncBatchNorm(80, eps=1e-05, momentum=0.1, affine=True, track_running_stats=True)
              (2): Upsample(scale_factor=2.0, mode=nearest)
            )
          )
          (2): ModuleList(
            (0): Sequential(
              (0): Sequential(
                (0): Conv2d(40, 40, kernel_size=(3, 3), stride=(2, 2), padding=(1, 1), groups=40, bias=False)
                (1): SyncBatchNorm(40, eps=1e-05, momentum=0.1, affine=True, track_running_stats=True)
                (2): Conv2d(40, 40, kernel_size=(1, 1), stride=(1, 1), bias=False)
                (3): SyncBatchNorm(40, eps=1e-05, momentum=0.1, affine=True, track_running_stats=True)
                (4): ReLU(inplace=True)
              )
              (1): Sequential(
                (0): Conv2d(40, 40, kernel_size=(3, 3), stride=(2, 2), padding=(1, 1), groups=40, bias=False)
                (1): SyncBatchNorm(40, eps=1e-05, momentum=0.1, affine=True, track_running_stats=True)
                (2): Conv2d(40, 160, kernel_size=(1, 1), stride=(1, 1), bias=False)
                (3): SyncBatchNorm(160, eps=1e-05, momentum=0.1, affine=True, track_running_stats=True)
              )
            )
            (1): Sequential(
              (0): Sequential(
                (0): Conv2d(80, 80, kernel_size=(3, 3), stride=(2, 2), padding=(1, 1), groups=80, bias=False)
                (1): SyncBatchNorm(80, eps=1e-05, momentum=0.1, affine=True, track_running_stats=True)
                (2): Conv2d(80, 160, kernel_size=(1, 1), stride=(1, 1), bias=False)
                (3): SyncBatchNorm(160, eps=1e-05, momentum=0.1, affine=True, track_running_stats=True)
              )
            )
            (2): None
          )
        )
        (relu): ReLU()
      )
      (2): LiteHRModule(
        (layers): Sequential(
          (0): ConditionalChannelWeighting(
            (cross_resolution_weighting): CrossResolutionWeighting(
              (conv1): ConvModule(
                (conv): Conv2d(140, 17, kernel_size=(1, 1), stride=(1, 1), bias=False)
                (bn): SyncBatchNorm(17, eps=1e-05, momentum=0.1, affine=True, track_running_stats=True)
                (activate): ReLU(inplace=True)
              )
              (conv2): ConvModule(
                (conv): Conv2d(17, 140, kernel_size=(1, 1), stride=(1, 1), bias=False)
                (bn): SyncBatchNorm(140, eps=1e-05, momentum=0.1, affine=True, track_running_stats=True)
                (activate): Sigmoid()
              )
            )
            (depthwise_convs): ModuleList(
              (0): ConvModule(
                (conv): Conv2d(20, 20, kernel_size=(3, 3), stride=(1, 1), padding=(1, 1), groups=20, bias=False)
                (bn): SyncBatchNorm(20, eps=1e-05, momentum=0.1, affine=True, track_running_stats=True)
              )
              (1): ConvModule(
                (conv): Conv2d(40, 40, kernel_size=(3, 3), stride=(1, 1), padding=(1, 1), groups=40, bias=False)
                (bn): SyncBatchNorm(40, eps=1e-05, momentum=0.1, affine=True, track_running_stats=True)
              )
              (2): ConvModule(
                (conv): Conv2d(80, 80, kernel_size=(3, 3), stride=(1, 1), padding=(1, 1), groups=80, bias=False)
                (bn): SyncBatchNorm(80, eps=1e-05, momentum=0.1, affine=True, track_running_stats=True)
              )
            )
            (spatial_weighting): ModuleList(
              (0): SpatialWeighting(
                (global_avgpool): AdaptiveAvgPool2d(output_size=1)
                (conv1): ConvModule(
                  (conv): Conv2d(20, 5, kernel_size=(1, 1), stride=(1, 1))
                  (activate): ReLU(inplace=True)
                )
                (conv2): ConvModule(
                  (conv): Conv2d(5, 20, kernel_size=(1, 1), stride=(1, 1))
                  (activate): Sigmoid()
                )
              )
              (1): SpatialWeighting(
                (global_avgpool): AdaptiveAvgPool2d(output_size=1)
                (conv1): ConvModule(
                  (conv): Conv2d(40, 10, kernel_size=(1, 1), stride=(1, 1))
                  (activate): ReLU(inplace=True)
                )
                (conv2): ConvModule(
                  (conv): Conv2d(10, 40, kernel_size=(1, 1), stride=(1, 1))
                  (activate): Sigmoid()
                )
              )
              (2): SpatialWeighting(
                (global_avgpool): AdaptiveAvgPool2d(output_size=1)
                (conv1): ConvModule(
                  (conv): Conv2d(80, 20, kernel_size=(1, 1), stride=(1, 1))
                  (activate): ReLU(inplace=True)
                )
                (conv2): ConvModule(
                  (conv): Conv2d(20, 80, kernel_size=(1, 1), stride=(1, 1))
                  (activate): Sigmoid()
                )
              )
            )
          )
          (1): ConditionalChannelWeighting(
            (cross_resolution_weighting): CrossResolutionWeighting(
              (conv1): ConvModule(
                (conv): Conv2d(140, 17, kernel_size=(1, 1), stride=(1, 1), bias=False)
                (bn): SyncBatchNorm(17, eps=1e-05, momentum=0.1, affine=True, track_running_stats=True)
                (activate): ReLU(inplace=True)
              )
              (conv2): ConvModule(
                (conv): Conv2d(17, 140, kernel_size=(1, 1), stride=(1, 1), bias=False)
                (bn): SyncBatchNorm(140, eps=1e-05, momentum=0.1, affine=True, track_running_stats=True)
                (activate): Sigmoid()
              )
            )
            (depthwise_convs): ModuleList(
              (0): ConvModule(
                (conv): Conv2d(20, 20, kernel_size=(3, 3), stride=(1, 1), padding=(1, 1), groups=20, bias=False)
                (bn): SyncBatchNorm(20, eps=1e-05, momentum=0.1, affine=True, track_running_stats=True)
              )
              (1): ConvModule(
                (conv): Conv2d(40, 40, kernel_size=(3, 3), stride=(1, 1), padding=(1, 1), groups=40, bias=False)
                (bn): SyncBatchNorm(40, eps=1e-05, momentum=0.1, affine=True, track_running_stats=True)
              )
              (2): ConvModule(
                (conv): Conv2d(80, 80, kernel_size=(3, 3), stride=(1, 1), padding=(1, 1), groups=80, bias=False)
                (bn): SyncBatchNorm(80, eps=1e-05, momentum=0.1, affine=True, track_running_stats=True)
              )
            )
            (spatial_weighting): ModuleList(
              (0): SpatialWeighting(
                (global_avgpool): AdaptiveAvgPool2d(output_size=1)
                (conv1): ConvModule(
                  (conv): Conv2d(20, 5, kernel_size=(1, 1), stride=(1, 1))
                  (activate): ReLU(inplace=True)
                )
                (conv2): ConvModule(
                  (conv): Conv2d(5, 20, kernel_size=(1, 1), stride=(1, 1))
                  (activate): Sigmoid()
                )
              )
              (1): SpatialWeighting(
                (global_avgpool): AdaptiveAvgPool2d(output_size=1)
                (conv1): ConvModule(
                  (conv): Conv2d(40, 10, kernel_size=(1, 1), stride=(1, 1))
                  (activate): ReLU(inplace=True)
                )
                (conv2): ConvModule(
                  (conv): Conv2d(10, 40, kernel_size=(1, 1), stride=(1, 1))
                  (activate): Sigmoid()
                )
              )
              (2): SpatialWeighting(
                (global_avgpool): AdaptiveAvgPool2d(output_size=1)
                (conv1): ConvModule(
                  (conv): Conv2d(80, 20, kernel_size=(1, 1), stride=(1, 1))
                  (activate): ReLU(inplace=True)
                )
                (conv2): ConvModule(
                  (conv): Conv2d(20, 80, kernel_size=(1, 1), stride=(1, 1))
                  (activate): Sigmoid()
                )
              )
            )
          )
        )
        (fuse_layers): ModuleList(
          (0): ModuleList(
            (0): None
            (1): Sequential(
              (0): Conv2d(80, 40, kernel_size=(1, 1), stride=(1, 1), bias=False)
              (1): SyncBatchNorm(40, eps=1e-05, momentum=0.1, affine=True, track_running_stats=True)
              (2): Upsample(scale_factor=2.0, mode=nearest)
            )
            (2): Sequential(
              (0): Conv2d(160, 40, kernel_size=(1, 1), stride=(1, 1), bias=False)
              (1): SyncBatchNorm(40, eps=1e-05, momentum=0.1, affine=True, track_running_stats=True)
              (2): Upsample(scale_factor=4.0, mode=nearest)
            )
          )
          (1): ModuleList(
            (0): Sequential(
              (0): Sequential(
                (0): Conv2d(40, 40, kernel_size=(3, 3), stride=(2, 2), padding=(1, 1), groups=40, bias=False)
                (1): SyncBatchNorm(40, eps=1e-05, momentum=0.1, affine=True, track_running_stats=True)
                (2): Conv2d(40, 80, kernel_size=(1, 1), stride=(1, 1), bias=False)
                (3): SyncBatchNorm(80, eps=1e-05, momentum=0.1, affine=True, track_running_stats=True)
              )
            )
            (1): None
            (2): Sequential(
              (0): Conv2d(160, 80, kernel_size=(1, 1), stride=(1, 1), bias=False)
              (1): SyncBatchNorm(80, eps=1e-05, momentum=0.1, affine=True, track_running_stats=True)
              (2): Upsample(scale_factor=2.0, mode=nearest)
            )
          )
          (2): ModuleList(
            (0): Sequential(
              (0): Sequential(
                (0): Conv2d(40, 40, kernel_size=(3, 3), stride=(2, 2), padding=(1, 1), groups=40, bias=False)
                (1): SyncBatchNorm(40, eps=1e-05, momentum=0.1, affine=True, track_running_stats=True)
                (2): Conv2d(40, 40, kernel_size=(1, 1), stride=(1, 1), bias=False)
                (3): SyncBatchNorm(40, eps=1e-05, momentum=0.1, affine=True, track_running_stats=True)
                (4): ReLU(inplace=True)
              )
              (1): Sequential(
                (0): Conv2d(40, 40, kernel_size=(3, 3), stride=(2, 2), padding=(1, 1), groups=40, bias=False)
                (1): SyncBatchNorm(40, eps=1e-05, momentum=0.1, affine=True, track_running_stats=True)
                (2): Conv2d(40, 160, kernel_size=(1, 1), stride=(1, 1), bias=False)
                (3): SyncBatchNorm(160, eps=1e-05, momentum=0.1, affine=True, track_running_stats=True)
              )
            )
            (1): Sequential(
              (0): Sequential(
                (0): Conv2d(80, 80, kernel_size=(3, 3), stride=(2, 2), padding=(1, 1), groups=80, bias=False)
                (1): SyncBatchNorm(80, eps=1e-05, momentum=0.1, affine=True, track_running_stats=True)
                (2): Conv2d(80, 160, kernel_size=(1, 1), stride=(1, 1), bias=False)
                (3): SyncBatchNorm(160, eps=1e-05, momentum=0.1, affine=True, track_running_stats=True)
              )
            )
            (2): None
          )
        )
        (relu): ReLU()
      )
      (3): LiteHRModule(
        (layers): Sequential(
          (0): ConditionalChannelWeighting(
            (cross_resolution_weighting): CrossResolutionWeighting(
              (conv1): ConvModule(
                (conv): Conv2d(140, 17, kernel_size=(1, 1), stride=(1, 1), bias=False)
                (bn): SyncBatchNorm(17, eps=1e-05, momentum=0.1, affine=True, track_running_stats=True)
                (activate): ReLU(inplace=True)
              )
              (conv2): ConvModule(
                (conv): Conv2d(17, 140, kernel_size=(1, 1), stride=(1, 1), bias=False)
                (bn): SyncBatchNorm(140, eps=1e-05, momentum=0.1, affine=True, track_running_stats=True)
                (activate): Sigmoid()
              )
            )
            (depthwise_convs): ModuleList(
              (0): ConvModule(
                (conv): Conv2d(20, 20, kernel_size=(3, 3), stride=(1, 1), padding=(1, 1), groups=20, bias=False)
                (bn): SyncBatchNorm(20, eps=1e-05, momentum=0.1, affine=True, track_running_stats=True)
              )
              (1): ConvModule(
                (conv): Conv2d(40, 40, kernel_size=(3, 3), stride=(1, 1), padding=(1, 1), groups=40, bias=False)
                (bn): SyncBatchNorm(40, eps=1e-05, momentum=0.1, affine=True, track_running_stats=True)
              )
              (2): ConvModule(
                (conv): Conv2d(80, 80, kernel_size=(3, 3), stride=(1, 1), padding=(1, 1), groups=80, bias=False)
                (bn): SyncBatchNorm(80, eps=1e-05, momentum=0.1, affine=True, track_running_stats=True)
              )
            )
            (spatial_weighting): ModuleList(
              (0): SpatialWeighting(
                (global_avgpool): AdaptiveAvgPool2d(output_size=1)
                (conv1): ConvModule(
                  (conv): Conv2d(20, 5, kernel_size=(1, 1), stride=(1, 1))
                  (activate): ReLU(inplace=True)
                )
                (conv2): ConvModule(
                  (conv): Conv2d(5, 20, kernel_size=(1, 1), stride=(1, 1))
                  (activate): Sigmoid()
                )
              )
              (1): SpatialWeighting(
                (global_avgpool): AdaptiveAvgPool2d(output_size=1)
                (conv1): ConvModule(
                  (conv): Conv2d(40, 10, kernel_size=(1, 1), stride=(1, 1))
                  (activate): ReLU(inplace=True)
                )
                (conv2): ConvModule(
                  (conv): Conv2d(10, 40, kernel_size=(1, 1), stride=(1, 1))
                  (activate): Sigmoid()
                )
              )
              (2): SpatialWeighting(
                (global_avgpool): AdaptiveAvgPool2d(output_size=1)
                (conv1): ConvModule(
                  (conv): Conv2d(80, 20, kernel_size=(1, 1), stride=(1, 1))
                  (activate): ReLU(inplace=True)
                )
                (conv2): ConvModule(
                  (conv): Conv2d(20, 80, kernel_size=(1, 1), stride=(1, 1))
                  (activate): Sigmoid()
                )
              )
            )
          )
          (1): ConditionalChannelWeighting(
            (cross_resolution_weighting): CrossResolutionWeighting(
              (conv1): ConvModule(
                (conv): Conv2d(140, 17, kernel_size=(1, 1), stride=(1, 1), bias=False)
                (bn): SyncBatchNorm(17, eps=1e-05, momentum=0.1, affine=True, track_running_stats=True)
                (activate): ReLU(inplace=True)
              )
              (conv2): ConvModule(
                (conv): Conv2d(17, 140, kernel_size=(1, 1), stride=(1, 1), bias=False)
                (bn): SyncBatchNorm(140, eps=1e-05, momentum=0.1, affine=True, track_running_stats=True)
                (activate): Sigmoid()
              )
            )
            (depthwise_convs): ModuleList(
              (0): ConvModule(
                (conv): Conv2d(20, 20, kernel_size=(3, 3), stride=(1, 1), padding=(1, 1), groups=20, bias=False)
                (bn): SyncBatchNorm(20, eps=1e-05, momentum=0.1, affine=True, track_running_stats=True)
              )
              (1): ConvModule(
                (conv): Conv2d(40, 40, kernel_size=(3, 3), stride=(1, 1), padding=(1, 1), groups=40, bias=False)
                (bn): SyncBatchNorm(40, eps=1e-05, momentum=0.1, affine=True, track_running_stats=True)
              )
              (2): ConvModule(
                (conv): Conv2d(80, 80, kernel_size=(3, 3), stride=(1, 1), padding=(1, 1), groups=80, bias=False)
                (bn): SyncBatchNorm(80, eps=1e-05, momentum=0.1, affine=True, track_running_stats=True)
              )
            )
            (spatial_weighting): ModuleList(
              (0): SpatialWeighting(
                (global_avgpool): AdaptiveAvgPool2d(output_size=1)
                (conv1): ConvModule(
                  (conv): Conv2d(20, 5, kernel_size=(1, 1), stride=(1, 1))
                  (activate): ReLU(inplace=True)
                )
                (conv2): ConvModule(
                  (conv): Conv2d(5, 20, kernel_size=(1, 1), stride=(1, 1))
                  (activate): Sigmoid()
                )
              )
              (1): SpatialWeighting(
                (global_avgpool): AdaptiveAvgPool2d(output_size=1)
                (conv1): ConvModule(
                  (conv): Conv2d(40, 10, kernel_size=(1, 1), stride=(1, 1))
                  (activate): ReLU(inplace=True)
                )
                (conv2): ConvModule(
                  (conv): Conv2d(10, 40, kernel_size=(1, 1), stride=(1, 1))
                  (activate): Sigmoid()
                )
              )
              (2): SpatialWeighting(
                (global_avgpool): AdaptiveAvgPool2d(output_size=1)
                (conv1): ConvModule(
                  (conv): Conv2d(80, 20, kernel_size=(1, 1), stride=(1, 1))
                  (activate): ReLU(inplace=True)
                )
                (conv2): ConvModule(
                  (conv): Conv2d(20, 80, kernel_size=(1, 1), stride=(1, 1))
                  (activate): Sigmoid()
                )
              )
            )
          )
        )
        (fuse_layers): ModuleList(
          (0): ModuleList(
            (0): None
            (1): Sequential(
              (0): Conv2d(80, 40, kernel_size=(1, 1), stride=(1, 1), bias=False)
              (1): SyncBatchNorm(40, eps=1e-05, momentum=0.1, affine=True, track_running_stats=True)
              (2): Upsample(scale_factor=2.0, mode=nearest)
            )
            (2): Sequential(
              (0): Conv2d(160, 40, kernel_size=(1, 1), stride=(1, 1), bias=False)
              (1): SyncBatchNorm(40, eps=1e-05, momentum=0.1, affine=True, track_running_stats=True)
              (2): Upsample(scale_factor=4.0, mode=nearest)
            )
          )
          (1): ModuleList(
            (0): Sequential(
              (0): Sequential(
                (0): Conv2d(40, 40, kernel_size=(3, 3), stride=(2, 2), padding=(1, 1), groups=40, bias=False)
                (1): SyncBatchNorm(40, eps=1e-05, momentum=0.1, affine=True, track_running_stats=True)
                (2): Conv2d(40, 80, kernel_size=(1, 1), stride=(1, 1), bias=False)
                (3): SyncBatchNorm(80, eps=1e-05, momentum=0.1, affine=True, track_running_stats=True)
              )
            )
            (1): None
            (2): Sequential(
              (0): Conv2d(160, 80, kernel_size=(1, 1), stride=(1, 1), bias=False)
              (1): SyncBatchNorm(80, eps=1e-05, momentum=0.1, affine=True, track_running_stats=True)
              (2): Upsample(scale_factor=2.0, mode=nearest)
            )
          )
          (2): ModuleList(
            (0): Sequential(
              (0): Sequential(
                (0): Conv2d(40, 40, kernel_size=(3, 3), stride=(2, 2), padding=(1, 1), groups=40, bias=False)
                (1): SyncBatchNorm(40, eps=1e-05, momentum=0.1, affine=True, track_running_stats=True)
                (2): Conv2d(40, 40, kernel_size=(1, 1), stride=(1, 1), bias=False)
                (3): SyncBatchNorm(40, eps=1e-05, momentum=0.1, affine=True, track_running_stats=True)
                (4): ReLU(inplace=True)
              )
              (1): Sequential(
                (0): Conv2d(40, 40, kernel_size=(3, 3), stride=(2, 2), padding=(1, 1), groups=40, bias=False)
                (1): SyncBatchNorm(40, eps=1e-05, momentum=0.1, affine=True, track_running_stats=True)
                (2): Conv2d(40, 160, kernel_size=(1, 1), stride=(1, 1), bias=False)
                (3): SyncBatchNorm(160, eps=1e-05, momentum=0.1, affine=True, track_running_stats=True)
              )
            )
            (1): Sequential(
              (0): Sequential(
                (0): Conv2d(80, 80, kernel_size=(3, 3), stride=(2, 2), padding=(1, 1), groups=80, bias=False)
                (1): SyncBatchNorm(80, eps=1e-05, momentum=0.1, affine=True, track_running_stats=True)
                (2): Conv2d(80, 160, kernel_size=(1, 1), stride=(1, 1), bias=False)
                (3): SyncBatchNorm(160, eps=1e-05, momentum=0.1, affine=True, track_running_stats=True)
              )
            )
            (2): None
          )
        )
        (relu): ReLU()
      )
    )
    (transition2): ModuleList(
      (0): None
      (1): None
      (2): None
      (3): Sequential(
        (0): Sequential(
          (0): Conv2d(160, 160, kernel_size=(3, 3), stride=(2, 2), padding=(1, 1), groups=160, bias=False)
          (1): SyncBatchNorm(160, eps=1e-05, momentum=0.1, affine=True, track_running_stats=True)
          (2): Conv2d(160, 320, kernel_size=(1, 1), stride=(1, 1), bias=False)
          (3): SyncBatchNorm(320, eps=1e-05, momentum=0.1, affine=True, track_running_stats=True)
          (4): ReLU()
        )
      )
    )
    (stage2): Sequential(
      (0): LiteHRModule(
        (layers): Sequential(
          (0): ConditionalChannelWeighting(
            (cross_resolution_weighting): CrossResolutionWeighting(
              (conv1): ConvModule(
                (conv): Conv2d(300, 37, kernel_size=(1, 1), stride=(1, 1), bias=False)
                (bn): SyncBatchNorm(37, eps=1e-05, momentum=0.1, affine=True, track_running_stats=True)
                (activate): ReLU(inplace=True)
              )
              (conv2): ConvModule(
                (conv): Conv2d(37, 300, kernel_size=(1, 1), stride=(1, 1), bias=False)
                (bn): SyncBatchNorm(300, eps=1e-05, momentum=0.1, affine=True, track_running_stats=True)
                (activate): Sigmoid()
              )
            )
            (depthwise_convs): ModuleList(
              (0): ConvModule(
                (conv): Conv2d(20, 20, kernel_size=(3, 3), stride=(1, 1), padding=(1, 1), groups=20, bias=False)
                (bn): SyncBatchNorm(20, eps=1e-05, momentum=0.1, affine=True, track_running_stats=True)
              )
              (1): ConvModule(
                (conv): Conv2d(40, 40, kernel_size=(3, 3), stride=(1, 1), padding=(1, 1), groups=40, bias=False)
                (bn): SyncBatchNorm(40, eps=1e-05, momentum=0.1, affine=True, track_running_stats=True)
              )
              (2): ConvModule(
                (conv): Conv2d(80, 80, kernel_size=(3, 3), stride=(1, 1), padding=(1, 1), groups=80, bias=False)
                (bn): SyncBatchNorm(80, eps=1e-05, momentum=0.1, affine=True, track_running_stats=True)
              )
              (3): ConvModule(
                (conv): Conv2d(160, 160, kernel_size=(3, 3), stride=(1, 1), padding=(1, 1), groups=160, bias=False)
                (bn): SyncBatchNorm(160, eps=1e-05, momentum=0.1, affine=True, track_running_stats=True)
              )
            )
            (spatial_weighting): ModuleList(
              (0): SpatialWeighting(
                (global_avgpool): AdaptiveAvgPool2d(output_size=1)
                (conv1): ConvModule(
                  (conv): Conv2d(20, 5, kernel_size=(1, 1), stride=(1, 1))
                  (activate): ReLU(inplace=True)
                )
                (conv2): ConvModule(
                  (conv): Conv2d(5, 20, kernel_size=(1, 1), stride=(1, 1))
                  (activate): Sigmoid()
                )
              )
              (1): SpatialWeighting(
                (global_avgpool): AdaptiveAvgPool2d(output_size=1)
                (conv1): ConvModule(
                  (conv): Conv2d(40, 10, kernel_size=(1, 1), stride=(1, 1))
                  (activate): ReLU(inplace=True)
                )
                (conv2): ConvModule(
                  (conv): Conv2d(10, 40, kernel_size=(1, 1), stride=(1, 1))
                  (activate): Sigmoid()
                )
              )
              (2): SpatialWeighting(
                (global_avgpool): AdaptiveAvgPool2d(output_size=1)
                (conv1): ConvModule(
                  (conv): Conv2d(80, 20, kernel_size=(1, 1), stride=(1, 1))
                  (activate): ReLU(inplace=True)
                )
                (conv2): ConvModule(
                  (conv): Conv2d(20, 80, kernel_size=(1, 1), stride=(1, 1))
                  (activate): Sigmoid()
                )
              )
              (3): SpatialWeighting(
                (global_avgpool): AdaptiveAvgPool2d(output_size=1)
                (conv1): ConvModule(
                  (conv): Conv2d(160, 40, kernel_size=(1, 1), stride=(1, 1))
                  (activate): ReLU(inplace=True)
                )
                (conv2): ConvModule(
                  (conv): Conv2d(40, 160, kernel_size=(1, 1), stride=(1, 1))
                  (activate): Sigmoid()
                )
              )
            )
          )
          (1): ConditionalChannelWeighting(
            (cross_resolution_weighting): CrossResolutionWeighting(
              (conv1): ConvModule(
                (conv): Conv2d(300, 37, kernel_size=(1, 1), stride=(1, 1), bias=False)
                (bn): SyncBatchNorm(37, eps=1e-05, momentum=0.1, affine=True, track_running_stats=True)
                (activate): ReLU(inplace=True)
              )
              (conv2): ConvModule(
                (conv): Conv2d(37, 300, kernel_size=(1, 1), stride=(1, 1), bias=False)
                (bn): SyncBatchNorm(300, eps=1e-05, momentum=0.1, affine=True, track_running_stats=True)
                (activate): Sigmoid()
              )
            )
            (depthwise_convs): ModuleList(
              (0): ConvModule(
                (conv): Conv2d(20, 20, kernel_size=(3, 3), stride=(1, 1), padding=(1, 1), groups=20, bias=False)
                (bn): SyncBatchNorm(20, eps=1e-05, momentum=0.1, affine=True, track_running_stats=True)
              )
              (1): ConvModule(
                (conv): Conv2d(40, 40, kernel_size=(3, 3), stride=(1, 1), padding=(1, 1), groups=40, bias=False)
                (bn): SyncBatchNorm(40, eps=1e-05, momentum=0.1, affine=True, track_running_stats=True)
              )
              (2): ConvModule(
                (conv): Conv2d(80, 80, kernel_size=(3, 3), stride=(1, 1), padding=(1, 1), groups=80, bias=False)
                (bn): SyncBatchNorm(80, eps=1e-05, momentum=0.1, affine=True, track_running_stats=True)
              )
              (3): ConvModule(
                (conv): Conv2d(160, 160, kernel_size=(3, 3), stride=(1, 1), padding=(1, 1), groups=160, bias=False)
                (bn): SyncBatchNorm(160, eps=1e-05, momentum=0.1, affine=True, track_running_stats=True)
              )
            )
            (spatial_weighting): ModuleList(
              (0): SpatialWeighting(
                (global_avgpool): AdaptiveAvgPool2d(output_size=1)
                (conv1): ConvModule(
                  (conv): Conv2d(20, 5, kernel_size=(1, 1), stride=(1, 1))
                  (activate): ReLU(inplace=True)
                )
                (conv2): ConvModule(
                  (conv): Conv2d(5, 20, kernel_size=(1, 1), stride=(1, 1))
                  (activate): Sigmoid()
                )
              )
              (1): SpatialWeighting(
                (global_avgpool): AdaptiveAvgPool2d(output_size=1)
                (conv1): ConvModule(
                  (conv): Conv2d(40, 10, kernel_size=(1, 1), stride=(1, 1))
                  (activate): ReLU(inplace=True)
                )
                (conv2): ConvModule(
                  (conv): Conv2d(10, 40, kernel_size=(1, 1), stride=(1, 1))
                  (activate): Sigmoid()
                )
              )
              (2): SpatialWeighting(
                (global_avgpool): AdaptiveAvgPool2d(output_size=1)
                (conv1): ConvModule(
                  (conv): Conv2d(80, 20, kernel_size=(1, 1), stride=(1, 1))
                  (activate): ReLU(inplace=True)
                )
                (conv2): ConvModule(
                  (conv): Conv2d(20, 80, kernel_size=(1, 1), stride=(1, 1))
                  (activate): Sigmoid()
                )
              )
              (3): SpatialWeighting(
                (global_avgpool): AdaptiveAvgPool2d(output_size=1)
                (conv1): ConvModule(
                  (conv): Conv2d(160, 40, kernel_size=(1, 1), stride=(1, 1))
                  (activate): ReLU(inplace=True)
                )
                (conv2): ConvModule(
                  (conv): Conv2d(40, 160, kernel_size=(1, 1), stride=(1, 1))
                  (activate): Sigmoid()
                )
              )
            )
          )
        )
        (fuse_layers): ModuleList(
          (0): ModuleList(
            (0): None
            (1): Sequential(
              (0): Conv2d(80, 40, kernel_size=(1, 1), stride=(1, 1), bias=False)
              (1): SyncBatchNorm(40, eps=1e-05, momentum=0.1, affine=True, track_running_stats=True)
              (2): Upsample(scale_factor=2.0, mode=nearest)
            )
            (2): Sequential(
              (0): Conv2d(160, 40, kernel_size=(1, 1), stride=(1, 1), bias=False)
              (1): SyncBatchNorm(40, eps=1e-05, momentum=0.1, affine=True, track_running_stats=True)
              (2): Upsample(scale_factor=4.0, mode=nearest)
            )
            (3): Sequential(
              (0): Conv2d(320, 40, kernel_size=(1, 1), stride=(1, 1), bias=False)
              (1): SyncBatchNorm(40, eps=1e-05, momentum=0.1, affine=True, track_running_stats=True)
              (2): Upsample(scale_factor=8.0, mode=nearest)
            )
          )
          (1): ModuleList(
            (0): Sequential(
              (0): Sequential(
                (0): Conv2d(40, 40, kernel_size=(3, 3), stride=(2, 2), padding=(1, 1), groups=40, bias=False)
                (1): SyncBatchNorm(40, eps=1e-05, momentum=0.1, affine=True, track_running_stats=True)
                (2): Conv2d(40, 80, kernel_size=(1, 1), stride=(1, 1), bias=False)
                (3): SyncBatchNorm(80, eps=1e-05, momentum=0.1, affine=True, track_running_stats=True)
              )
            )
            (1): None
            (2): Sequential(
              (0): Conv2d(160, 80, kernel_size=(1, 1), stride=(1, 1), bias=False)
              (1): SyncBatchNorm(80, eps=1e-05, momentum=0.1, affine=True, track_running_stats=True)
              (2): Upsample(scale_factor=2.0, mode=nearest)
            )
            (3): Sequential(
              (0): Conv2d(320, 80, kernel_size=(1, 1), stride=(1, 1), bias=False)
              (1): SyncBatchNorm(80, eps=1e-05, momentum=0.1, affine=True, track_running_stats=True)
              (2): Upsample(scale_factor=4.0, mode=nearest)
            )
          )
          (2): ModuleList(
            (0): Sequential(
              (0): Sequential(
                (0): Conv2d(40, 40, kernel_size=(3, 3), stride=(2, 2), padding=(1, 1), groups=40, bias=False)
                (1): SyncBatchNorm(40, eps=1e-05, momentum=0.1, affine=True, track_running_stats=True)
                (2): Conv2d(40, 40, kernel_size=(1, 1), stride=(1, 1), bias=False)
                (3): SyncBatchNorm(40, eps=1e-05, momentum=0.1, affine=True, track_running_stats=True)
                (4): ReLU(inplace=True)
              )
              (1): Sequential(
                (0): Conv2d(40, 40, kernel_size=(3, 3), stride=(2, 2), padding=(1, 1), groups=40, bias=False)
                (1): SyncBatchNorm(40, eps=1e-05, momentum=0.1, affine=True, track_running_stats=True)
                (2): Conv2d(40, 160, kernel_size=(1, 1), stride=(1, 1), bias=False)
                (3): SyncBatchNorm(160, eps=1e-05, momentum=0.1, affine=True, track_running_stats=True)
              )
            )
            (1): Sequential(
              (0): Sequential(
                (0): Conv2d(80, 80, kernel_size=(3, 3), stride=(2, 2), padding=(1, 1), groups=80, bias=False)
                (1): SyncBatchNorm(80, eps=1e-05, momentum=0.1, affine=True, track_running_stats=True)
                (2): Conv2d(80, 160, kernel_size=(1, 1), stride=(1, 1), bias=False)
                (3): SyncBatchNorm(160, eps=1e-05, momentum=0.1, affine=True, track_running_stats=True)
              )
            )
            (2): None
            (3): Sequential(
              (0): Conv2d(320, 160, kernel_size=(1, 1), stride=(1, 1), bias=False)
              (1): SyncBatchNorm(160, eps=1e-05, momentum=0.1, affine=True, track_running_stats=True)
              (2): Upsample(scale_factor=2.0, mode=nearest)
            )
          )
          (3): ModuleList(
            (0): Sequential(
              (0): Sequential(
                (0): Conv2d(40, 40, kernel_size=(3, 3), stride=(2, 2), padding=(1, 1), groups=40, bias=False)
                (1): SyncBatchNorm(40, eps=1e-05, momentum=0.1, affine=True, track_running_stats=True)
                (2): Conv2d(40, 40, kernel_size=(1, 1), stride=(1, 1), bias=False)
                (3): SyncBatchNorm(40, eps=1e-05, momentum=0.1, affine=True, track_running_stats=True)
                (4): ReLU(inplace=True)
              )
              (1): Sequential(
                (0): Conv2d(40, 40, kernel_size=(3, 3), stride=(2, 2), padding=(1, 1), groups=40, bias=False)
                (1): SyncBatchNorm(40, eps=1e-05, momentum=0.1, affine=True, track_running_stats=True)
                (2): Conv2d(40, 40, kernel_size=(1, 1), stride=(1, 1), bias=False)
                (3): SyncBatchNorm(40, eps=1e-05, momentum=0.1, affine=True, track_running_stats=True)
                (4): ReLU(inplace=True)
              )
              (2): Sequential(
                (0): Conv2d(40, 40, kernel_size=(3, 3), stride=(2, 2), padding=(1, 1), groups=40, bias=False)
                (1): SyncBatchNorm(40, eps=1e-05, momentum=0.1, affine=True, track_running_stats=True)
                (2): Conv2d(40, 320, kernel_size=(1, 1), stride=(1, 1), bias=False)
                (3): SyncBatchNorm(320, eps=1e-05, momentum=0.1, affine=True, track_running_stats=True)
              )
            )
            (1): Sequential(
              (0): Sequential(
                (0): Conv2d(80, 80, kernel_size=(3, 3), stride=(2, 2), padding=(1, 1), groups=80, bias=False)
                (1): SyncBatchNorm(80, eps=1e-05, momentum=0.1, affine=True, track_running_stats=True)
                (2): Conv2d(80, 80, kernel_size=(1, 1), stride=(1, 1), bias=False)
                (3): SyncBatchNorm(80, eps=1e-05, momentum=0.1, affine=True, track_running_stats=True)
                (4): ReLU(inplace=True)
              )
              (1): Sequential(
                (0): Conv2d(80, 80, kernel_size=(3, 3), stride=(2, 2), padding=(1, 1), groups=80, bias=False)
                (1): SyncBatchNorm(80, eps=1e-05, momentum=0.1, affine=True, track_running_stats=True)
                (2): Conv2d(80, 320, kernel_size=(1, 1), stride=(1, 1), bias=False)
                (3): SyncBatchNorm(320, eps=1e-05, momentum=0.1, affine=True, track_running_stats=True)
              )
            )
            (2): Sequential(
              (0): Sequential(
                (0): Conv2d(160, 160, kernel_size=(3, 3), stride=(2, 2), padding=(1, 1), groups=160, bias=False)
                (1): SyncBatchNorm(160, eps=1e-05, momentum=0.1, affine=True, track_running_stats=True)
                (2): Conv2d(160, 320, kernel_size=(1, 1), stride=(1, 1), bias=False)
                (3): SyncBatchNorm(320, eps=1e-05, momentum=0.1, affine=True, track_running_stats=True)
              )
            )
            (3): None
          )
        )
        (relu): ReLU()
      )
      (1): LiteHRModule(
        (layers): Sequential(
          (0): ConditionalChannelWeighting(
            (cross_resolution_weighting): CrossResolutionWeighting(
              (conv1): ConvModule(
                (conv): Conv2d(300, 37, kernel_size=(1, 1), stride=(1, 1), bias=False)
                (bn): SyncBatchNorm(37, eps=1e-05, momentum=0.1, affine=True, track_running_stats=True)
                (activate): ReLU(inplace=True)
              )
              (conv2): ConvModule(
                (conv): Conv2d(37, 300, kernel_size=(1, 1), stride=(1, 1), bias=False)
                (bn): SyncBatchNorm(300, eps=1e-05, momentum=0.1, affine=True, track_running_stats=True)
                (activate): Sigmoid()
              )
            )
            (depthwise_convs): ModuleList(
              (0): ConvModule(
                (conv): Conv2d(20, 20, kernel_size=(3, 3), stride=(1, 1), padding=(1, 1), groups=20, bias=False)
                (bn): SyncBatchNorm(20, eps=1e-05, momentum=0.1, affine=True, track_running_stats=True)
              )
              (1): ConvModule(
                (conv): Conv2d(40, 40, kernel_size=(3, 3), stride=(1, 1), padding=(1, 1), groups=40, bias=False)
                (bn): SyncBatchNorm(40, eps=1e-05, momentum=0.1, affine=True, track_running_stats=True)
              )
              (2): ConvModule(
                (conv): Conv2d(80, 80, kernel_size=(3, 3), stride=(1, 1), padding=(1, 1), groups=80, bias=False)
                (bn): SyncBatchNorm(80, eps=1e-05, momentum=0.1, affine=True, track_running_stats=True)
              )
              (3): ConvModule(
                (conv): Conv2d(160, 160, kernel_size=(3, 3), stride=(1, 1), padding=(1, 1), groups=160, bias=False)
                (bn): SyncBatchNorm(160, eps=1e-05, momentum=0.1, affine=True, track_running_stats=True)
              )
            )
            (spatial_weighting): ModuleList(
              (0): SpatialWeighting(
                (global_avgpool): AdaptiveAvgPool2d(output_size=1)
                (conv1): ConvModule(
                  (conv): Conv2d(20, 5, kernel_size=(1, 1), stride=(1, 1))
                  (activate): ReLU(inplace=True)
                )
                (conv2): ConvModule(
                  (conv): Conv2d(5, 20, kernel_size=(1, 1), stride=(1, 1))
                  (activate): Sigmoid()
                )
              )
              (1): SpatialWeighting(
                (global_avgpool): AdaptiveAvgPool2d(output_size=1)
                (conv1): ConvModule(
                  (conv): Conv2d(40, 10, kernel_size=(1, 1), stride=(1, 1))
                  (activate): ReLU(inplace=True)
                )
                (conv2): ConvModule(
                  (conv): Conv2d(10, 40, kernel_size=(1, 1), stride=(1, 1))
                  (activate): Sigmoid()
                )
              )
              (2): SpatialWeighting(
                (global_avgpool): AdaptiveAvgPool2d(output_size=1)
                (conv1): ConvModule(
                  (conv): Conv2d(80, 20, kernel_size=(1, 1), stride=(1, 1))
                  (activate): ReLU(inplace=True)
                )
                (conv2): ConvModule(
                  (conv): Conv2d(20, 80, kernel_size=(1, 1), stride=(1, 1))
                  (activate): Sigmoid()
                )
              )
              (3): SpatialWeighting(
                (global_avgpool): AdaptiveAvgPool2d(output_size=1)
                (conv1): ConvModule(
                  (conv): Conv2d(160, 40, kernel_size=(1, 1), stride=(1, 1))
                  (activate): ReLU(inplace=True)
                )
                (conv2): ConvModule(
                  (conv): Conv2d(40, 160, kernel_size=(1, 1), stride=(1, 1))
                  (activate): Sigmoid()
                )
              )
            )
          )
          (1): ConditionalChannelWeighting(
            (cross_resolution_weighting): CrossResolutionWeighting(
              (conv1): ConvModule(
                (conv): Conv2d(300, 37, kernel_size=(1, 1), stride=(1, 1), bias=False)
                (bn): SyncBatchNorm(37, eps=1e-05, momentum=0.1, affine=True, track_running_stats=True)
                (activate): ReLU(inplace=True)
              )
              (conv2): ConvModule(
                (conv): Conv2d(37, 300, kernel_size=(1, 1), stride=(1, 1), bias=False)
                (bn): SyncBatchNorm(300, eps=1e-05, momentum=0.1, affine=True, track_running_stats=True)
                (activate): Sigmoid()
              )
            )
            (depthwise_convs): ModuleList(
              (0): ConvModule(
                (conv): Conv2d(20, 20, kernel_size=(3, 3), stride=(1, 1), padding=(1, 1), groups=20, bias=False)
                (bn): SyncBatchNorm(20, eps=1e-05, momentum=0.1, affine=True, track_running_stats=True)
              )
              (1): ConvModule(
                (conv): Conv2d(40, 40, kernel_size=(3, 3), stride=(1, 1), padding=(1, 1), groups=40, bias=False)
                (bn): SyncBatchNorm(40, eps=1e-05, momentum=0.1, affine=True, track_running_stats=True)
              )
              (2): ConvModule(
                (conv): Conv2d(80, 80, kernel_size=(3, 3), stride=(1, 1), padding=(1, 1), groups=80, bias=False)
                (bn): SyncBatchNorm(80, eps=1e-05, momentum=0.1, affine=True, track_running_stats=True)
              )
              (3): ConvModule(
                (conv): Conv2d(160, 160, kernel_size=(3, 3), stride=(1, 1), padding=(1, 1), groups=160, bias=False)
                (bn): SyncBatchNorm(160, eps=1e-05, momentum=0.1, affine=True, track_running_stats=True)
              )
            )
            (spatial_weighting): ModuleList(
              (0): SpatialWeighting(
                (global_avgpool): AdaptiveAvgPool2d(output_size=1)
                (conv1): ConvModule(
                  (conv): Conv2d(20, 5, kernel_size=(1, 1), stride=(1, 1))
                  (activate): ReLU(inplace=True)
                )
                (conv2): ConvModule(
                  (conv): Conv2d(5, 20, kernel_size=(1, 1), stride=(1, 1))
                  (activate): Sigmoid()
                )
              )
              (1): SpatialWeighting(
                (global_avgpool): AdaptiveAvgPool2d(output_size=1)
                (conv1): ConvModule(
                  (conv): Conv2d(40, 10, kernel_size=(1, 1), stride=(1, 1))
                  (activate): ReLU(inplace=True)
                )
                (conv2): ConvModule(
                  (conv): Conv2d(10, 40, kernel_size=(1, 1), stride=(1, 1))
                  (activate): Sigmoid()
                )
              )
              (2): SpatialWeighting(
                (global_avgpool): AdaptiveAvgPool2d(output_size=1)
                (conv1): ConvModule(
                  (conv): Conv2d(80, 20, kernel_size=(1, 1), stride=(1, 1))
                  (activate): ReLU(inplace=True)
                )
                (conv2): ConvModule(
                  (conv): Conv2d(20, 80, kernel_size=(1, 1), stride=(1, 1))
                  (activate): Sigmoid()
                )
              )
              (3): SpatialWeighting(
                (global_avgpool): AdaptiveAvgPool2d(output_size=1)
                (conv1): ConvModule(
                  (conv): Conv2d(160, 40, kernel_size=(1, 1), stride=(1, 1))
                  (activate): ReLU(inplace=True)
                )
                (conv2): ConvModule(
                  (conv): Conv2d(40, 160, kernel_size=(1, 1), stride=(1, 1))
                  (activate): Sigmoid()
                )
              )
            )
          )
        )
        (fuse_layers): ModuleList(
          (0): ModuleList(
            (0): None
            (1): Sequential(
              (0): Conv2d(80, 40, kernel_size=(1, 1), stride=(1, 1), bias=False)
              (1): SyncBatchNorm(40, eps=1e-05, momentum=0.1, affine=True, track_running_stats=True)
              (2): Upsample(scale_factor=2.0, mode=nearest)
            )
            (2): Sequential(
              (0): Conv2d(160, 40, kernel_size=(1, 1), stride=(1, 1), bias=False)
              (1): SyncBatchNorm(40, eps=1e-05, momentum=0.1, affine=True, track_running_stats=True)
              (2): Upsample(scale_factor=4.0, mode=nearest)
            )
            (3): Sequential(
              (0): Conv2d(320, 40, kernel_size=(1, 1), stride=(1, 1), bias=False)
              (1): SyncBatchNorm(40, eps=1e-05, momentum=0.1, affine=True, track_running_stats=True)
              (2): Upsample(scale_factor=8.0, mode=nearest)
            )
          )
          (1): ModuleList(
            (0): Sequential(
              (0): Sequential(
                (0): Conv2d(40, 40, kernel_size=(3, 3), stride=(2, 2), padding=(1, 1), groups=40, bias=False)
                (1): SyncBatchNorm(40, eps=1e-05, momentum=0.1, affine=True, track_running_stats=True)
                (2): Conv2d(40, 80, kernel_size=(1, 1), stride=(1, 1), bias=False)
                (3): SyncBatchNorm(80, eps=1e-05, momentum=0.1, affine=True, track_running_stats=True)
              )
            )
            (1): None
            (2): Sequential(
              (0): Conv2d(160, 80, kernel_size=(1, 1), stride=(1, 1), bias=False)
              (1): SyncBatchNorm(80, eps=1e-05, momentum=0.1, affine=True, track_running_stats=True)
              (2): Upsample(scale_factor=2.0, mode=nearest)
            )
            (3): Sequential(
              (0): Conv2d(320, 80, kernel_size=(1, 1), stride=(1, 1), bias=False)
              (1): SyncBatchNorm(80, eps=1e-05, momentum=0.1, affine=True, track_running_stats=True)
              (2): Upsample(scale_factor=4.0, mode=nearest)
            )
          )
          (2): ModuleList(
            (0): Sequential(
              (0): Sequential(
                (0): Conv2d(40, 40, kernel_size=(3, 3), stride=(2, 2), padding=(1, 1), groups=40, bias=False)
                (1): SyncBatchNorm(40, eps=1e-05, momentum=0.1, affine=True, track_running_stats=True)
                (2): Conv2d(40, 40, kernel_size=(1, 1), stride=(1, 1), bias=False)
                (3): SyncBatchNorm(40, eps=1e-05, momentum=0.1, affine=True, track_running_stats=True)
                (4): ReLU(inplace=True)
              )
              (1): Sequential(
                (0): Conv2d(40, 40, kernel_size=(3, 3), stride=(2, 2), padding=(1, 1), groups=40, bias=False)
                (1): SyncBatchNorm(40, eps=1e-05, momentum=0.1, affine=True, track_running_stats=True)
                (2): Conv2d(40, 160, kernel_size=(1, 1), stride=(1, 1), bias=False)
                (3): SyncBatchNorm(160, eps=1e-05, momentum=0.1, affine=True, track_running_stats=True)
              )
            )
            (1): Sequential(
              (0): Sequential(
                (0): Conv2d(80, 80, kernel_size=(3, 3), stride=(2, 2), padding=(1, 1), groups=80, bias=False)
                (1): SyncBatchNorm(80, eps=1e-05, momentum=0.1, affine=True, track_running_stats=True)
                (2): Conv2d(80, 160, kernel_size=(1, 1), stride=(1, 1), bias=False)
                (3): SyncBatchNorm(160, eps=1e-05, momentum=0.1, affine=True, track_running_stats=True)
              )
            )
            (2): None
            (3): Sequential(
              (0): Conv2d(320, 160, kernel_size=(1, 1), stride=(1, 1), bias=False)
              (1): SyncBatchNorm(160, eps=1e-05, momentum=0.1, affine=True, track_running_stats=True)
              (2): Upsample(scale_factor=2.0, mode=nearest)
            )
          )
          (3): ModuleList(
            (0): Sequential(
              (0): Sequential(
                (0): Conv2d(40, 40, kernel_size=(3, 3), stride=(2, 2), padding=(1, 1), groups=40, bias=False)
                (1): SyncBatchNorm(40, eps=1e-05, momentum=0.1, affine=True, track_running_stats=True)
                (2): Conv2d(40, 40, kernel_size=(1, 1), stride=(1, 1), bias=False)
                (3): SyncBatchNorm(40, eps=1e-05, momentum=0.1, affine=True, track_running_stats=True)
                (4): ReLU(inplace=True)
              )
              (1): Sequential(
                (0): Conv2d(40, 40, kernel_size=(3, 3), stride=(2, 2), padding=(1, 1), groups=40, bias=False)
                (1): SyncBatchNorm(40, eps=1e-05, momentum=0.1, affine=True, track_running_stats=True)
                (2): Conv2d(40, 40, kernel_size=(1, 1), stride=(1, 1), bias=False)
                (3): SyncBatchNorm(40, eps=1e-05, momentum=0.1, affine=True, track_running_stats=True)
                (4): ReLU(inplace=True)
              )
              (2): Sequential(
                (0): Conv2d(40, 40, kernel_size=(3, 3), stride=(2, 2), padding=(1, 1), groups=40, bias=False)
                (1): SyncBatchNorm(40, eps=1e-05, momentum=0.1, affine=True, track_running_stats=True)
                (2): Conv2d(40, 320, kernel_size=(1, 1), stride=(1, 1), bias=False)
                (3): SyncBatchNorm(320, eps=1e-05, momentum=0.1, affine=True, track_running_stats=True)
              )
            )
            (1): Sequential(
              (0): Sequential(
                (0): Conv2d(80, 80, kernel_size=(3, 3), stride=(2, 2), padding=(1, 1), groups=80, bias=False)
                (1): SyncBatchNorm(80, eps=1e-05, momentum=0.1, affine=True, track_running_stats=True)
                (2): Conv2d(80, 80, kernel_size=(1, 1), stride=(1, 1), bias=False)
                (3): SyncBatchNorm(80, eps=1e-05, momentum=0.1, affine=True, track_running_stats=True)
                (4): ReLU(inplace=True)
              )
              (1): Sequential(
                (0): Conv2d(80, 80, kernel_size=(3, 3), stride=(2, 2), padding=(1, 1), groups=80, bias=False)
                (1): SyncBatchNorm(80, eps=1e-05, momentum=0.1, affine=True, track_running_stats=True)
                (2): Conv2d(80, 320, kernel_size=(1, 1), stride=(1, 1), bias=False)
                (3): SyncBatchNorm(320, eps=1e-05, momentum=0.1, affine=True, track_running_stats=True)
              )
            )
            (2): Sequential(
              (0): Sequential(
                (0): Conv2d(160, 160, kernel_size=(3, 3), stride=(2, 2), padding=(1, 1), groups=160, bias=False)
                (1): SyncBatchNorm(160, eps=1e-05, momentum=0.1, affine=True, track_running_stats=True)
                (2): Conv2d(160, 320, kernel_size=(1, 1), stride=(1, 1), bias=False)
                (3): SyncBatchNorm(320, eps=1e-05, momentum=0.1, affine=True, track_running_stats=True)
              )
            )
            (3): None
          )
        )
        (relu): ReLU()
      )
    )
  )
  init_cfg=[{'type': 'Normal', 'std': 0.001, 'layer': 'Conv2d'}, {'type': 'Constant', 'val': 1, 'layer': ['_BatchNorm', 'GroupNorm']}]
  (decode_head): FCNHead(
    input_transform=resize_concat, ignore_index=255, align_corners=False
    (loss_decode): CrossEntropyLoss()
    (conv_seg): Conv2d(600, 19, kernel_size=(1, 1), stride=(1, 1))
    (convs): Sequential(
      (0): ConvModule(
        (conv): Conv2d(600, 600, kernel_size=(1, 1), stride=(1, 1), bias=False)
        (bn): SyncBatchNorm(600, eps=1e-05, momentum=0.1, affine=True, track_running_stats=True)
        (activate): ReLU(inplace=True)
      )
    )
  )
  init_cfg={'type': 'Normal', 'std': 0.01, 'override': {'name': 'conv_seg'}}
)
2021-08-27 16:58:26,043 - mmseg - INFO - Loaded 2975 images
2021-08-27 16:58:31,515 - mmseg - INFO - Loaded 500 images
…
